…
2020-06-01 21:19:17.000418	Analysis of this training was enabled. Extra analysis is done for evaluations and for first 50 rollouts
2020-06-01 21:19:17.005595	Rough upper bound on total evaluation time during training: 1.37 min
2020-06-01 21:19:17.178794	Created network
                          	ModelConfig(activation_function=ELU(alpha=1.0), batchnorm=True, architecture='fc', init='glorot', shared_sizes=[4096, 2048], part_sizes=[512], conv_channels=None, cat_sizes=None, res_blocks=None, res_size=None, is2024=True)
                          	Model(
                          	  (shared_net): Sequential(
                          	    (0): Linear(in_features=480, out_features=4096, bias=True)
                          	    (1): ELU(alpha=1.0)
                          	    (2): BatchNorm1d(4096, eps=1e-05, momentum=0.1, affine=True, track_running_stats=True)
                          	    (3): Linear(in_features=4096, out_features=2048, bias=True)
                          	    (4): ELU(alpha=1.0)
                          	    (5): BatchNorm1d(2048, eps=1e-05, momentum=0.1, affine=True, track_running_stats=True)
                          	  )
                          	  (policy_net): Sequential(
                          	    (0): Linear(in_features=2048, out_features=512, bias=True)
                          	    (1): ELU(alpha=1.0)
                          	    (2): BatchNorm1d(512, eps=1e-05, momentum=0.1, affine=True, track_running_stats=True)
                          	    (3): Linear(in_features=512, out_features=12, bias=True)
                          	  )
                          	  (value_net): Sequential(
                          	    (0): Linear(in_features=2048, out_features=512, bias=True)
                          	    (1): ELU(alpha=1.0)
                          	    (2): BatchNorm1d(512, eps=1e-05, momentum=0.1, affine=True, track_running_stats=True)
                          	    (3): Linear(in_features=512, out_features=1, bias=True)
                          	  )
                          	)
2020-06-01 21:19:17.194379	Beginning training. Optimization is performed in batches of 1000
2020-06-01 21:19:17.195604	Rollouts: 1000
                          	Each consisting of 1000 games with a depth of 100
                          	Evaluations: 41
2020-06-01 21:19:20.801681	Intercepted RuntimeError CUDA out of memory. Tried to allocate 18.31 GiB (GPU 0; 31.75 GiB total capacity; 20.73 GiB already allocated; 9.95 GiB free; 20.74 GiB reserved in total by PyTorch)
…
