…
                          	Rollout depth:  30
                          	alpha update:   0.0
2020-06-15 22:27:51.428403	Analysis of this training was enabled. Extra analysis is done for evaluations and for first 100 rollouts
2020-06-15 22:27:51.429182	Rough upper bound on total evaluation time during training: 12.67 min
2020-06-15 22:27:51.585852	Created network
                          	<librubiks.model.ModelConfig object at 0x7f1f22c25510>
                          	ConvNet(
                          	  (shared_conv_net): Sequential(
                          	    (0): _CircularPad()
                          	    (1): Conv1d(6, 32, kernel_size=(3,), stride=(1,))
                          	    (2): BatchNorm1d(32, eps=1e-05, momentum=0.1, affine=True, track_running_stats=True)
                          	    (3): _CircularPad()
                          	    (4): Conv1d(32, 64, kernel_size=(3,), stride=(1,))
                          	    (5): ELU(alpha=1.0)
                          	    (6): BatchNorm1d(64, eps=1e-05, momentum=0.1, affine=True, track_running_stats=True)
                          	    (7): _CircularPad()
                          	    (8): Conv1d(64, 128, kernel_size=(3,), stride=(1,))
                          	    (9): ELU(alpha=1.0)
                          	    (10): BatchNorm1d(128, eps=1e-05, momentum=0.1, affine=True, track_running_stats=True)
                          	  )
                          	  (cat_net): Sequential(
                          	    (0): Linear(in_features=3072, out_features=2048, bias=True)
                          	    (1): ELU(alpha=1.0)
                          	    (2): BatchNorm1d(2048, eps=1e-05, momentum=0.1, affine=True, track_running_stats=True)
                          	  )
                          	  (shared_net): Sequential(
                          	    (0): Linear(in_features=288, out_features=4096, bias=True)
                          	    (1): ELU(alpha=1.0)
                          	    (2): BatchNorm1d(4096, eps=1e-05, momentum=0.1, affine=True, track_running_stats=True)
                          	    (3): Linear(in_features=4096, out_features=2048, bias=True)
                          	    (4): ELU(alpha=1.0)
                          	    (5): BatchNorm1d(2048, eps=1e-05, momentum=0.1, affine=True, track_running_stats=True)
                          	  )
                          	  (policy_net): Sequential(
                          	    (0): Linear(in_features=2048, out_features=512, bias=True)
                          	    (1): ELU(alpha=1.0)
                          	    (2): BatchNorm1d(512, eps=1e-05, momentum=0.1, affine=True, track_running_stats=True)
                          	    (3): Linear(in_features=512, out_features=12, bias=True)
                          	  )
                          	  (value_net): Sequential(
                          	    (0): Linear(in_features=2048, out_features=512, bias=True)
                          	    (1): ELU(alpha=1.0)
                          	    (2): BatchNorm1d(512, eps=1e-05, momentum=0.1, affine=True, track_running_stats=True)
                          	    (3): Linear(in_features=512, out_features=1, bias=True)
                          	  )
                          	)
2020-06-15 22:27:51.604709	Beginning training. Optimization is performed in batches of 1000
2020-06-15 22:27:51.605468	Rollouts: 1500
                          	Each consisting of 7500 games with a depth of 30
                          	Evaluations: 76
2020-06-15 22:28:15.723930	Intercepted RuntimeError CUDA out of memory. Tried to allocate 41.20 GiB (GPU 0; 31.75 GiB total capacity; 3.41 GiB already allocated; 27.25 GiB free; 3.45 GiB reserved in total by PyTorch)
…
