…
                          	Rollout games:  7500
                          	Rollout depth:  30
                          	alpha update:   0.0
2020-06-14 23:05:14.511368	Analysis of this training was enabled. Extra analysis is done for evaluations and for first 100 rollouts
2020-06-14 23:05:14.512311	Rough upper bound on total evaluation time during training: 12.67 min
2020-06-14 23:05:14.631641	Created network
                          	<librubiks.model.ModelConfig object at 0x7fba12928d30>
                          	Model(
                          	  (shared_net): Sequential(
                          	    (0): Linear(in_features=480, out_features=4096, bias=True)
                          	    (1): ELU(alpha=1.0)
                          	    (2): BatchNorm1d(4096, eps=1e-05, momentum=0.1, affine=True, track_running_stats=True)
                          	    (3): Linear(in_features=4096, out_features=2048, bias=True)
                          	    (4): ELU(alpha=1.0)
                          	    (5): BatchNorm1d(2048, eps=1e-05, momentum=0.1, affine=True, track_running_stats=True)
                          	  )
                          	  (policy_net): Sequential(
                          	    (0): Linear(in_features=2048, out_features=512, bias=True)
                          	    (1): ELU(alpha=1.0)
                          	    (2): BatchNorm1d(512, eps=1e-05, momentum=0.1, affine=True, track_running_stats=True)
                          	    (3): Linear(in_features=512, out_features=12, bias=True)
                          	  )
                          	  (value_net): Sequential(
                          	    (0): Linear(in_features=2048, out_features=512, bias=True)
                          	    (1): ELU(alpha=1.0)
                          	    (2): BatchNorm1d(512, eps=1e-05, momentum=0.1, affine=True, track_running_stats=True)
                          	    (3): Linear(in_features=512, out_features=1, bias=True)
                          	  )
                          	)
2020-06-14 23:05:14.645488	Beginning training. Optimization is performed in batches of 1000
2020-06-14 23:05:14.646724	Rollouts: 1500
                          	Each consisting of 7500 games with a depth of 30
                          	Evaluations: 76
2020-06-14 23:05:18.022874	Intercepted RuntimeError CUDA out of memory. Tried to allocate 41.20 GiB (GPU 0; 15.78 GiB total capacity; 5.37 GiB already allocated; 9.31 GiB free; 5.41 GiB reserved in total by PyTorch)
…
