…
                          	Policy and value criteria: CrossEntropyLoss() and MSELoss()
                          	Rollouts:       2000
                          	Batch size:     1000
                          	Rollout games:  2000
                          	Rollout depth:  100
                          	alpha update:   0.025
2020-06-11 09:08:17.516993	Rough upper bound on total evaluation time during training: 16.83 min
2020-06-11 09:08:17.647995	Created network
                          	<librubiks.model.ModelConfig object at 0x7fb50bb78580>
                          	Model(
                          	  (shared_net): Sequential(
                          	    (0): Linear(in_features=288, out_features=4096, bias=True)
                          	    (1): ELU(alpha=1.0)
                          	    (2): BatchNorm1d(4096, eps=1e-05, momentum=0.1, affine=True, track_running_stats=True)
                          	    (3): Linear(in_features=4096, out_features=2048, bias=True)
                          	    (4): ELU(alpha=1.0)
                          	    (5): BatchNorm1d(2048, eps=1e-05, momentum=0.1, affine=True, track_running_stats=True)
                          	  )
                          	  (policy_net): Sequential(
                          	    (0): Linear(in_features=2048, out_features=512, bias=True)
                          	    (1): ELU(alpha=1.0)
                          	    (2): BatchNorm1d(512, eps=1e-05, momentum=0.1, affine=True, track_running_stats=True)
                          	    (3): Linear(in_features=512, out_features=12, bias=True)
                          	  )
                          	  (value_net): Sequential(
                          	    (0): Linear(in_features=2048, out_features=512, bias=True)
                          	    (1): ELU(alpha=1.0)
                          	    (2): BatchNorm1d(512, eps=1e-05, momentum=0.1, affine=True, track_running_stats=True)
                          	    (3): Linear(in_features=512, out_features=1, bias=True)
                          	  )
                          	)
2020-06-11 09:08:17.660232	Beginning training. Optimization is performed in batches of 1000
2020-06-11 09:08:17.660849	Rollouts: 2000
                          	Each consisting of 2000 games with a depth of 100
                          	Evaluations: 101
2020-06-11 09:08:40.323445	Intercepted RuntimeError CUDA out of memory. Tried to allocate 36.62 GiB (GPU 0; 31.75 GiB total capacity; 2.88 GiB already allocated; 27.77 GiB free; 2.91 GiB reserved in total by PyTorch)
…
