…
                          	Rollout games:  7500
                          	Rollout depth:  30
                          	alpha update:   0.0
2020-06-15 23:04:48.709938	Analysis of this training was enabled. Extra analysis is done for evaluations and for first 100 rollouts
2020-06-15 23:04:48.711432	Rough upper bound on total evaluation time during training: 12.67 min
2020-06-15 23:04:49.240941	Created network
                          	<librubiks.model.ModelConfig object at 0x7f64d835eed0>
                          	Model(
                          	  (shared_net): Sequential(
                          	    (0): Linear(in_features=480, out_features=8192, bias=True)
                          	    (1): ELU(alpha=1.0)
                          	    (2): BatchNorm1d(8192, eps=1e-05, momentum=0.1, affine=True, track_running_stats=True)
                          	    (3): Linear(in_features=8192, out_features=4096, bias=True)
                          	    (4): ELU(alpha=1.0)
                          	    (5): BatchNorm1d(4096, eps=1e-05, momentum=0.1, affine=True, track_running_stats=True)
                          	    (6): Linear(in_features=4096, out_features=2048, bias=True)
                          	    (7): ELU(alpha=1.0)
                          	    (8): BatchNorm1d(2048, eps=1e-05, momentum=0.1, affine=True, track_running_stats=True)
                          	  )
                          	  (policy_net): Sequential(
                          	    (0): Linear(in_features=2048, out_features=1024, bias=True)
                          	    (1): ELU(alpha=1.0)
                          	    (2): BatchNorm1d(1024, eps=1e-05, momentum=0.1, affine=True, track_running_stats=True)
                          	    (3): Linear(in_features=1024, out_features=512, bias=True)
                          	    (4): ELU(alpha=1.0)
                          	    (5): BatchNorm1d(512, eps=1e-05, momentum=0.1, affine=True, track_running_stats=True)
                          	    (6): Linear(in_features=512, out_features=12, bias=True)
                          	  )
                          	  (value_net): Sequential(
                          	    (0): Linear(in_features=2048, out_features=1024, bias=True)
                          	    (1): ELU(alpha=1.0)
                          	    (2): BatchNorm1d(1024, eps=1e-05, momentum=0.1, affine=True, track_running_stats=True)
                          	    (3): Linear(in_features=1024, out_features=512, bias=True)
                          	    (4): ELU(alpha=1.0)
                          	    (5): BatchNorm1d(512, eps=1e-05, momentum=0.1, affine=True, track_running_stats=True)
                          	    (6): Linear(in_features=512, out_features=1, bias=True)
                          	  )
                          	)
2020-06-15 23:04:49.289068	Beginning training. Optimization is performed in batches of 1000
2020-06-15 23:04:49.290017	Rollouts: 1500
                          	Each consisting of 7500 games with a depth of 30
                          	Evaluations: 76
2020-06-15 23:04:53.716980	Intercepted RuntimeError CUDA out of memory. Tried to allocate 82.40 GiB (GPU 0; 31.75 GiB total capacity; 6.00 GiB already allocated; 24.70 GiB free; 6.00 GiB reserved in total by PyTorch)
…
