…
2020-05-30 18:08:43.732329	Analysis of this training was enabled. Extra analysis is done for evaluations and for first 50 rollouts
2020-05-30 18:08:43.737867	Rough upper bound on total evaluation time during training: 2.70 min
2020-05-30 18:08:43.873735	Created network
                          	ModelConfig(activation_function=ELU(alpha=1.0), batchnorm=True, architecture='fc', init='glorot', shared_sizes=[4096, 2048], part_sizes=[512], conv_channels=None, cat_sizes=None, res_blocks=None, res_size=None, is2024=True)
                          	Model(
                          	  (shared_net): Sequential(
                          	    (0): Linear(in_features=480, out_features=4096, bias=True)
                          	    (1): ELU(alpha=1.0)
                          	    (2): BatchNorm1d(4096, eps=1e-05, momentum=0.1, affine=True, track_running_stats=True)
                          	    (3): Linear(in_features=4096, out_features=2048, bias=True)
                          	    (4): ELU(alpha=1.0)
                          	    (5): BatchNorm1d(2048, eps=1e-05, momentum=0.1, affine=True, track_running_stats=True)
                          	  )
                          	  (policy_net): Sequential(
                          	    (0): Linear(in_features=2048, out_features=512, bias=True)
                          	    (1): ELU(alpha=1.0)
                          	    (2): BatchNorm1d(512, eps=1e-05, momentum=0.1, affine=True, track_running_stats=True)
                          	    (3): Linear(in_features=512, out_features=12, bias=True)
                          	  )
                          	  (value_net): Sequential(
                          	    (0): Linear(in_features=2048, out_features=512, bias=True)
                          	    (1): ELU(alpha=1.0)
                          	    (2): BatchNorm1d(512, eps=1e-05, momentum=0.1, affine=True, track_running_stats=True)
                          	    (3): Linear(in_features=512, out_features=1, bias=True)
                          	  )
                          	)
2020-05-30 18:08:43.887695	Beginning training. Optimization is performed in batches of 5000
2020-05-30 18:08:43.888700	Rollouts: 2000
                          	Each consisting of 3000 games with a depth of 100
                          	Evaluations: 81
2020-05-30 18:08:50.277040	Intercepted RuntimeError CUDA out of memory. Tried to allocate 54.93 GiB (GPU 0; 15.78 GiB total capacity; 7.07 GiB already allocated; 7.64 GiB free; 7.07 GiB reserved in total by PyTorch)
…
