…
                          	Policy and value criteria: CrossEntropyLoss() and MSELoss()
                          	Rollouts:       2000
                          	Batch size:     1000
                          	Rollout games:  7700
                          	Rollout depth:  26
                          	alpha update:   0.0
2020-06-10 18:43:49.047908	Rough upper bound on total evaluation time during training: 16.83 min
2020-06-10 18:43:49.199941	Created network
                          	<librubiks.model.ModelConfig object at 0x7fa93150e2d0>
                          	Model(
                          	  (shared_net): Sequential(
                          	    (0): Linear(in_features=480, out_features=4096, bias=True)
                          	    (1): ELU(alpha=1.0)
                          	    (2): BatchNorm1d(4096, eps=1e-05, momentum=0.1, affine=True, track_running_stats=True)
                          	    (3): Linear(in_features=4096, out_features=2048, bias=True)
                          	    (4): ELU(alpha=1.0)
                          	    (5): BatchNorm1d(2048, eps=1e-05, momentum=0.1, affine=True, track_running_stats=True)
                          	  )
                          	  (policy_net): Sequential(
                          	    (0): Linear(in_features=2048, out_features=512, bias=True)
                          	    (1): ELU(alpha=1.0)
                          	    (2): BatchNorm1d(512, eps=1e-05, momentum=0.1, affine=True, track_running_stats=True)
                          	    (3): Linear(in_features=512, out_features=12, bias=True)
                          	  )
                          	  (value_net): Sequential(
                          	    (0): Linear(in_features=2048, out_features=512, bias=True)
                          	    (1): ELU(alpha=1.0)
                          	    (2): BatchNorm1d(512, eps=1e-05, momentum=0.1, affine=True, track_running_stats=True)
                          	    (3): Linear(in_features=512, out_features=1, bias=True)
                          	  )
                          	)
2020-06-10 18:43:49.281278	Beginning training. Optimization is performed in batches of 1000
2020-06-10 18:43:49.282323	Rollouts: 2000
                          	Each consisting of 7700 games with a depth of 26
                          	Evaluations: 101
2020-06-10 18:43:53.173947	Intercepted RuntimeError CUDA out of memory. Tried to allocate 36.66 GiB (GPU 0; 31.75 GiB total capacity; 4.75 GiB already allocated; 23.82 GiB free; 4.78 GiB reserved in total by PyTorch)
…
