…
                          	Rollouts:       1500
                          	Batch size:     1000
                          	Rollout games:  1000
                          	Rollout depth:  50
                          	Loss weighting: adaptive
2020-04-29 08:37:39.204981	Created network
                          	ModelConfig(activation_function=ELU(alpha=1.0), batchnorm=True, architecture='fc', shared_sizes=[4096, 2048], part_sizes=[512], conv_channels=None, cat_sizes=None, res_blocks=None, res_size=None, is2024=True)
                          	Model(
                          	  (shared_net): Sequential(
                          	    (0): Linear(in_features=480, out_features=4096, bias=True)
                          	    (1): ELU(alpha=1.0)
                          	    (2): BatchNorm1d(4096, eps=1e-05, momentum=0.1, affine=True, track_running_stats=True)
                          	    (3): Linear(in_features=4096, out_features=2048, bias=True)
                          	    (4): ELU(alpha=1.0)
                          	    (5): BatchNorm1d(2048, eps=1e-05, momentum=0.1, affine=True, track_running_stats=True)
                          	  )
                          	  (policy_net): Sequential(
                          	    (0): Linear(in_features=2048, out_features=512, bias=True)
                          	    (1): ELU(alpha=1.0)
                          	    (2): BatchNorm1d(512, eps=1e-05, momentum=0.1, affine=True, track_running_stats=True)
                          	    (3): Linear(in_features=512, out_features=12, bias=True)
                          	  )
                          	  (value_net): Sequential(
                          	    (0): Linear(in_features=2048, out_features=512, bias=True)
                          	    (1): ELU(alpha=1.0)
                          	    (2): BatchNorm1d(512, eps=1e-05, momentum=0.1, affine=True, track_running_stats=True)
                          	    (3): Linear(in_features=512, out_features=1, bias=True)
                          	  )
                          	)
2020-04-29 08:37:39.218426	Beginning training. Optimization is performed in batches of 1000
2020-04-29 08:37:39.219427	Rollouts: 1500
                          	Each consisting of 1000 games with a depth of 50
                          	Evaluations: 50
2020-04-29 08:37:43.818274	Rollout 0 completed with weighted loss 7.9816570449620485
…
